temporily-in-a-mess/camera_calibration/camera_parameters.npz (npz, 1592 bytes, 4 tensors)

tvecs f8 [16, 3, 1]
-4.90413760795761 -0.8697880016933979 16.833608095836272 -4.599706305710474 -1.9868571366176506 11.680398805068359 -1.1414308383956944 -2.4361313326271317
13.006677575913171 -5.767540021956677 -2.7646431140925465 13.42048475569671 -2.7857822119805298 0.5545271586362656 18.2111290016119 -4.931097845211555
-2.1310228895840133 13.29593949397554 4.3506725152157255 3.86925332129159 21.19131195652646 -5.280263833655674 4.347427491175482 18.832728648642288
2.5501524296067957 -3.7682098693478974 20.16700610267032 -1.4738677889121976 -5.4049881969295575 23.715701446828128 -8.114361563272935 -2.755285750410099
22.864180959329094 -10.16835064880237 0.9850248877846253 21.688808654250856 3.2608515175572497 -3.7763291023225505 22.123086358545972 2.7544755140267365
-5.415377374164154 21.14153027658936 -3.0308769855134625 -2.116496931075252 12.533061404814003 -3.0450434202007433 -1.9050234624765674 11.121817259228555
00000000: e20b c53f d69d 13c0 263e b7a5 4dd5 ebbf
00000010: 314c 1557 67d5 3040 05ed e868 1966 12c0
00000020: 5e8d 79b5 2aca ffbf 1d03 703b 5d5c 2740
00000030: cae2 98fb 4c43 f2bf ca27 936c 327d 03c0
00000040: c753 443e 6b03 2a40 40b3 f202 f611 17c0
00000050: d81c 8135 fd1d 06c0 2b5e 24c7 49d7 2a40
00000060: 1be1 312f 4849 06c0 23c5 62bd afbe e13f
00000070: 0629 dd8c 0c36 3240 223d aab6 71b9 13c0
00000080: 7853 8eba 550c 01c0 8170 a061 8597 2a40
00000090: 96d4 21b2 1667 1140 1518 d715 3bf4 0e40
000000a0: 6b9d 04d2 f930 3540 f835 7f7b fd1e 15c0
000000b0: f251 4108 c463 1140 645c 68b4 2dd5 3240
000000c0: 1dcf 2751 b666 0440 5c82 4a37 4b25 0ec0
000000d0: 9233 75e9 c02a 3440 6e17 0064 f694 f7bf
000000e0: 5750 d439 b59e 15c0 a2d3 c335 38b7 3740
000000f0: 775a 4c99 8d3a 20c0 682b 6941 d30a 06c0
00000100: f524 9ef6 3add 3640 aebb 650e 3256 24c0
00000110: 3efe d8e9 5285 ef3f 8e35 93c3 55b0 3540
00000120: b129 0852 3916 0a40 6344 4b08 ec35 0ec0
00000130: e789 6c96 821f 3640 5f05 5375 2a09 0640
00000140: 3322 b6af 58a9 15c0 5b58 0554 3b24 3540
00000150: c9d5 d76e 3c3f 08c0 ac6b 68f1 95ee 00c0
00000160: 36df a86c ed10 2940 244c 85b9 3f5c 08c0
00000170: 5131 d7e1 f97a febf 33f3 f0d4 5e3e 2640

mtx f8 [3, 3]
1091.56183666959 0.0 606.2968894291325 0.0 1091.310622408489 353.7039064911108 0.0 0.0
1.0
00000000: 55a6 1c52 3f0e 9140 0000 0000 0000 0000
00000010: 38a5 9007 60f2 8240 0000 0000 0000 0000
00000020: 76f7 cc13 3e0d 9140 35ec 7333 431b 7640
00000030: 0000 0000 0000 0000 0000 0000 0000 0000
00000040: 0000 0000 0000 f03f

dist f8 [1, 5]
0.03111291843724344 -0.40349083787289486 -0.0018065453709152895 0.0004039861247304084 0.4691059132136329
00000000: 8c2e af9c 10dc 9f3f 0a95 393c cbd2 d9bf
00000010: f847 5b52 3399 5dbf 7deb 9931 c379 3a3f
00000020: 9537 e7ce d405 de3f

rvecs f8 [16, 3, 1]
0.0018554109394678935 0.407910586132927 -0.09575739416070399 -0.02664049467104945 0.07925454746467854 0.06266376820862589 -0.0752823633884696 0.058774686786181814
0.21407599733766547 -0.07500841908820531 -0.34494882034409236 -0.04060345476054575 0.23857897546842316 -0.006845166860782505 -0.5817231306483626 0.15208941331846249
-0.1658711289019437 -0.027650434006147112 -0.09144505164654138 0.27268422207793075 -1.5561836302194452 0.2891322873384462 -0.03579308313792104 -1.5512563546763576
0.5014526715216929 0.18898369244446062 0.13499789011635566 0.1015548126094492 0.1517027433848286 0.4279741607034884 -0.09576336609921413 -0.11783913880071961
0.4845641772300026 -0.11749354707960012 -0.15043185890721245 0.04918805995723051 0.05693939420522543 0.38213629684205286 0.3258130221957172 0.12337680117439916
0.4187262856921988 0.1212754467051927 0.0887395412850532 0.25391331796366645 0.010232327413354005 0.03169859521944497 -0.2190294855395754 0.07439016872039056
00000000: fdda 8f53 2866 5e3f eb84 c800 351b da3f
00000010: 4339 457c 8e83 b8bf ff17 7255 a547 9bbf
00000020: f989 6ba9 064a b43f eba4 1993 bb0a b03f
00000030: 9f14 b878 b445 b3bf 4199 283b b717 ae3f
00000040: ec40 b69f d766 cb3f b793 e872 c033 b3bf
00000050: 6afc 8a37 a413 d6bf 9431 9adc f9c9 a4bf
00000060: 4a35 9380 c189 ce3f f5f4 d77c ad09 7cbf
00000070: 38c4 aed3 799d e2bf c8a3 2278 aa77 c33f
00000080: 6902 fee0 433b c5bf 283f 1b37 6550 9cbf
00000090: f8f2 3362 f168 b7bf 3a6f fd85 a873 d13f
000000a0: 27cf 65ce 20e6 f8bf f685 95b5 2481 d23f
000000b0: cc31 0093 7853 a2bf 0ec1 f02e f2d1 f8bf
000000c0: 18ae 1579 e60b e03f 2a5d 431d 9e30 c83f
000000d0: 7414 8a61 9c47 c13f bfb3 e806 7fff b93f
000000e0: a091 c6d8 fe6a c33f 3d4a f0bb ed63 db3f
000000f0: 520e 8dad f283 b8bf 5080 56af b42a bebf
00000100: 4b06 8177 1903 df3f cfaa 329e 0e14 bebf
00000110: 2838 24e5 5941 c3bf 9e6f bd69 2d2f a93f
00000120: 6155 ee07 2927 ad3f 4a46 63cc eb74 d83f
00000130: fc41 bcdc 1eda d43f 3d0f 213e 9f95 bf3f
00000140: c981 c155 69cc da3f 8516 685d e80b bf3f
00000150: a56c ae73 a2b7 b63f 1a0f 2ba5 1d40 d03f
00000160: 018d d1bc aff4 843f 92e3 975b cc3a a03f
00000170: 7a47 a07e 2809 ccbf b449 cced 3b0b b33f
